True
----------------------------------------------------------------
        Layer (type)               Output Shape         Param #
================================================================
            Conv2d-1           [-1, 64, 28, 28]             576
       BatchNorm2d-2           [-1, 64, 28, 28]             128
              ReLU-3           [-1, 64, 28, 28]               0
            Conv2d-4          [-1, 128, 28, 28]          73,728
       BatchNorm2d-5          [-1, 128, 28, 28]             256
              ReLU-6          [-1, 128, 28, 28]               0
            Conv2d-7          [-1, 128, 28, 28]         147,456
       BatchNorm2d-8          [-1, 128, 28, 28]             256
              ReLU-9          [-1, 128, 28, 28]               0
           Conv2d-10          [-1, 128, 28, 28]         147,456
      BatchNorm2d-11          [-1, 128, 28, 28]             256
             ReLU-12          [-1, 128, 28, 28]               0
        MaxPool2d-13          [-1, 128, 14, 14]               0
           Conv2d-14          [-1, 128, 14, 14]         147,456
      BatchNorm2d-15          [-1, 128, 14, 14]             256
             ReLU-16          [-1, 128, 14, 14]               0
           Conv2d-17          [-1, 128, 14, 14]         147,456
      BatchNorm2d-18          [-1, 128, 14, 14]             256
             ReLU-19          [-1, 128, 14, 14]               0
           Conv2d-20          [-1, 256, 14, 14]         294,912
      BatchNorm2d-21          [-1, 256, 14, 14]             512
             ReLU-22          [-1, 256, 14, 14]               0
        MaxPool2d-23            [-1, 256, 7, 7]               0
           Conv2d-24            [-1, 256, 7, 7]         589,824
      BatchNorm2d-25            [-1, 256, 7, 7]             512
             ReLU-26            [-1, 256, 7, 7]               0
           Conv2d-27            [-1, 256, 7, 7]         589,824
      BatchNorm2d-28            [-1, 256, 7, 7]             512
             ReLU-29            [-1, 256, 7, 7]               0
           Conv2d-30            [-1, 512, 7, 7]         131,072
      BatchNorm2d-31            [-1, 512, 7, 7]           1,024
             ReLU-32            [-1, 512, 7, 7]               0
           Conv2d-33            [-1, 512, 7, 7]       2,359,296
      BatchNorm2d-34            [-1, 512, 7, 7]           1,024
             ReLU-35            [-1, 512, 7, 7]               0
           Conv2d-36           [-1, 2048, 7, 7]       1,048,576
      BatchNorm2d-37           [-1, 2048, 7, 7]           4,096
             ReLU-38           [-1, 2048, 7, 7]               0
           Conv2d-39            [-1, 512, 7, 7]       1,048,576
      BatchNorm2d-40            [-1, 512, 7, 7]           1,024
             ReLU-41            [-1, 512, 7, 7]               0
           Conv2d-42            [-1, 256, 7, 7]       1,179,648
      BatchNorm2d-43            [-1, 256, 7, 7]             512
             ReLU-44            [-1, 256, 7, 7]               0
        AvgPool2d-45            [-1, 256, 1, 1]               0
           Linear-46                   [-1, 10]           2,570
================================================================
Total params: 7,919,050
Trainable params: 7,919,050
Non-trainable params: 0
----------------------------------------------------------------
Input size (MB): 0.00
Forward/backward pass size (MB): 15.51
Params size (MB): 30.21
Estimated Total Size (MB): 45.72
----------------------------------------------------------------
None
0 0.12787295680235872 	 0.9635549872122762 	 0.028810977247245965 	 0.9911985759493671
…
